HW6/Gap_net_10epoch.pth (torch, 11329 bytes, 6 tensors)

conv1.weight f4 [6, 3, 5, 5]
0	0x3e992380	0.29909897
1	0x3c582389	0.013192066
2	0xbe89dc55	-0.26925912
3	0xbe145312	-0.14484814
4	0x3da8a066	0.082337186
5	0x3f10f19d	0.5661867
6	0x3f07b63e	0.53012455
7	0x3de1a8d4	0.110185295
8	0xbeb4f57b	-0.35343537
9	0xbe489df1	-0.195915
10	0x3ebc6994	0.367993
11	0x3f107ed2	0.5644351
12	0x3e84baf9	0.259239
13	0xbe2e2a5a	-0.17008343
14	0xbe610dec	-0.21977967
15	0x3b9a58e4	0.0047103036
16	0x3c78ec26	0.015193021
17	0x3ea29ca2	0.31760126
18	0x3d5e20df	0.054230567
19	0xbe6e489c	-0.23269886
20	0xbe2d93c6	-0.16950902
21	0xbd62339e	-0.055225007
22	0xbd5b1ad1	-0.05349237
23	0x3c47e181	0.01219976
24	0xbed2d328	-0.41176724
25	0xbc98ea0e	-0.018666293
26	0xbe494650	-0.19655728
27	0xbed91621	-0.42399696
28	0xbe97bafa	-0.2963484
29	0x3ddf9cff	0.109186165
30	0x3de3ba43	0.11119511
31	0x3ea24336	0.31691903
32	0xbddae4ce	-0.10688172
33	0xbec09961	-0.3761702
34	0xbe0abb8a	-0.13548103
35	0x3e0e62bb	0.1390485
36	0x3e547e9e	0.20751426
37	0x3df2f5c7	0.118632846
38	0xbdf55324	-0.119787484
39	0xbeb51fbd	-0.35375777
40	0xbcf37307	-0.029717935
41	0x3cb393f4	0.021921135
42	0x3e006c77	0.12541376
43	0x3d92f05e	0.07174753
44	0xbe10cfdb	-0.1414179
45	0xbe503419	-0.20332374
46	0xbd9cc595	-0.07654873
47	0x3de9c72e	0.11414944
48	0x3e239fb2	0.15978888
49	0xbe5fa84c	-0.21841544
50	0x3f0b0101	0.54298407
51	0x3e9600ef	0.29297587
52	0xbc6c013f	-0.014404594
53	0xbda3a725	-0.07990865
54	0xbd1938da	-0.037407734
55	0x3ef78c39	0.4834917
56	0x3f0966b6	0.5367235
57	0xbdd334ae	-0.10312782
58	0xbef90143	-0.48633775
59	0xbe7991ca	-0.2437202
60	0x3e443c5c	0.1916365
61	0x3ec6a251	0.38795713
62	0x3e92791c	0.28608024
63	0xbebae623	-0.36503705
64	0xbed063c7	-0.40701124
65	0xbdca997b	-0.09892555
66	0x3db19242	0.086704746
67	0x3eaf8685	0.34282318
68	0x3de42056	0.1113898
69	0xbe3335f5	-0.17501052
70	0xbddcc3bf	-0.10779523
71	0x3d817c5d	0.063225485
72	0x3e8d0b32	0.27547604
73	0x3ec9eec3	0.39439973
74	0x3cc37e9e	0.023864087
75	0xbee582f4	-0.44826472
76	0xbebf4233	-0.37355193
77	0xbe891e6a	-0.26781017
78	0xbee43dbc	-0.4457835
79	0xbee93ced	-0.45554295
80	0xbf3f32b6	-0.74686754
81	0xbec7323a	-0.38905507
82	0xbec7fbd9	-0.39059332
83	0xbeaf6e9b	-0.34264073
84	0xbedd4240	-0.43214607
85	0xbe810882	-0.25201803
86	0xbeb2a22f	-0.3488936
87	0xbdfdcf46	-0.1239305
88	0xbe90d6ab	-0.2828878
89	0xbe1334aa	-0.14375558
90	0xbcc5197c	-0.024060003
91	0xbe751d61	-0.23936988
92	0xbe3e30c8	-0.18573296
93	0xbda226c8	-0.07917553
94	0x3e2cbf4a	0.16869846
95	0x3ec716fc	0.38884723
96	0x3f108f8a	0.56469023
97	0x3f400a40	0.7501564
98	0x3f18dcb9	0.59711796
99	0x3f15f8b7	0.58582634
100	0x3ee734d3	0.4515749
101	0x3e805144	0.25062
102	0x3e8499c6	0.2589857
103	0x3e3af518	0.18257558
104	0x3e0e3c09	0.13890089
105	0x3dd631a1	0.10458685
106	0x3e6cd07d	0.23126407
107	0x3e9b5773	0.30340156
108	0x3d6dcab1	0.05805463
109	0xba790dde	-0.00095006626
110	0x3ea09561	0.31363967
111	0x3e2796d9	0.16366138
112	0x3e003874	0.12521535
113	0xbcf7d624	-0.030253477
114	0xb912a3e8	-0.00013984705
115	0x3ce85427	0.02836044
116	0xbe2e4f41	-0.1702242
117	0xbe823e8b	-0.25438341
118	0xbea4065a	-0.32036096
119	0xbe5a7366	-0.21333084
120	0xbe5a2f1b	-0.21307032
121	0xbd98ac1c	-0.07454702
122	0xbe07db5c	-0.13267273
123	0xbd921625	-0.0713313
124	0xbed062af	-0.4070029
125	0x3e50458d	0.20339032
126	0x3e832209	0.25611904
127	0x3e13905e	0.1441054
128	0x3ebe4cc1	0.37167934
129	0x3ee646e2	0.44975954
130	0x3e0bf1e5	0.13666494
131	0x3e41003e	0.18847749
132	0x3ee63f24	0.44970047
133	0x3eb9f153	0.36316928
134	0x3e073c2d	0.13206549
135	0x3d574729	0.052558098
136	0x3e67d79a	0.22640839
137	0x3e2011d1	0.15631796
138	0x3e8dac89	0.27670696
139	0x3dcd75aa	0.10032208
140	0xbda20d11	-0.079126485
141	0xbe3b3ea0	-0.18285608
142	0xbea58553	-0.3232828
143	0xbcb8c9d9	-0.022557186
144	0x3dafb81e	0.085800394
145	0xbea705ab	-0.32621512
146	0xbcd22ca2	-0.025656048
147	0x3dcb0199	0.09912414
148	0xbe0c9d62	-0.13731912
149	0xbe8c9b41	-0.274622
150	0xbe9f767a	-0.31145078
151	0x3b502cfd	0.0031765096
152	0xbd9e6f66	-0.07736091
153	0x3ea8d28e	0.3297314
154	0xbeee8129	-0.46582916
155	0x3eeb4478	0.45950675
156	0x3f0351e6	0.5129684
157	0xbfb57225	-1.4175459
158	0xbe87d307	-0.2652819
159	0x3f95a381	1.1690522
160	0x3c494d7b	0.012286539
161	0x3d93ba66	0.07213287
162	0xbe9fe84f	-0.31231925
163	0xbe9ecf3e	-0.31017488
164	0x3ef5cf83	0.4800988
165	0xbf3c1a21	-0.7347737
166	0xbf1a274a	-0.602162
167	0x4004e229	2.0763037
168	0x3e5a87bc	0.21340841
169	0xbf8dc9c9	-1.1077205
170	0x3ddde176	0.10834019
171	0xbed1bfa7	-0.40966532
172	0x3effef9e	0.499875
173	0x3d87ebc5	0.06636766
174	0x3d0464a2	0.032322533
175	0xbeaaedaa	-0.33384448
176	0x3e61b305	0.22040947
177	0x3d77a2fd	0.060458172
178	0x3f12dfa6	0.5737251
179	0xbee368d4	-0.44415915
180	0x3e9fdcb3	0.31223068
181	0x3f0f90c2	0.5608026
182	0xbfa0440c	-1.2520766
183	0xbde3c662	-0.11121823
184	0x3f85f383	1.0464939
185	0x3d8aba4d	0.06773815
186	0xbadbfd3f	-0.0016783847
187	0xbe5ba483	-0.21449475
188	0xbe8a4a7a	-0.27009946
189	0x3ea504c5	0.322302
190	0xbf35855b	-0.7090661
191	0xbf08bf55	-0.5341695
192	0x3fe0e4b5	1.7569796
193	0x3e296069	0.16540684
194	0xbf78c098	-0.97168875
195	0x3e006187	0.12537204
196	0xbf15dfca	-0.585446
197	0x3e9aa035	0.30200353
198	0xbdb8a4c0	-0.090157986
199	0xbd99e17d	-0.075137116
200	0xbe7a9f59	-0.24474849
201	0x3ba70ffa	0.00509834
202	0xbe543ca0	-0.20726252
203	0x3e7e8911	0.24856974
204	0xbf185d85	-0.595177
205	0x3f141265	0.5784057
206	0x3f1bfab0	0.60929394
207	0xbfb9cf84	-1.4516454
208	0xbeb9f2d8	-0.36318088
209	0x3f55bbf3	0.8348991
210	0x3e22fcde	0.15916774
211	0x3deec3c3	0.11658432
212	0xbe4cb530	-0.19990993
213	0xbf08911d	-0.53346425
214	0x3e8562a6	0.26051825
215	0xbf007a77	-0.50186867
216	0xbeb8cc7e	-0.36093515
217	0x3fef6def	1.8705424
218	0x3d9e60af	0.07733285
219	0xbf942384	-1.1573339
220	0x3efaa3b6	0.48953027
221	0xbec4de71	-0.3845096
222	0x3eb02e6b	0.34410414
223	0xbdc3af18	-0.09554881
224	0x3d13d7cd	0.036094476
225	0x3e6755b5	0.22591288
226	0x3e7f4c22	0.24931386
227	0xbecace28	-0.3961041
228	0x3e3f01a5	0.18652971
229	0x3d1da0a1	0.038483266
230	0x3f127bc7	0.5722012
231	0x3f08d562	0.53450596
232	0xbf01d1e6	-0.50710905
233	0x3ecc2994	0.39875472
234	0x3e9a3d18	0.30124736
235	0x3eb83b71	0.3598285
236	0x3fcc5ff7	1.5966786
237	0x3f47869e	0.77939785
238	0x3f82aec5	1.0209585
239	0x3cb51727	0.022105766
240	0xbf5c0333	-0.8594238
241	0xbdff3563	-0.124613546
242	0xbf613d10	-0.879838
243	0xbe98120e	-0.29701275
244	0xbee74b65	-0.4517471
245	0xbe840553	-0.25785312
246	0xbe93b206	-0.2884676
247	0xbf71f3f6	-0.9451288
248	0xbdc3678f	-0.095412366
249	0xbed7fa48	-0.42183137
250	0x3d55b7ef	0.052177366
251	0xbe975a46	-0.2956106
252	0xbf1fd5b7	-0.6243548
253	0x3ee24a5d	0.4419736
254	0xbe147a32	-0.14499739
255	0xbec60f49	-0.38683537

conv1.bias f4 [6]
0	0xbf33172b	-0.69957227
1	0x3ed9225e	0.42409033
2	0xbef97a3f	-0.4872608
3	0xbf6931f6	-0.9109186
4	0xbec385a7	-0.38187906
5	0xbf3f6bc3	-0.74773806

conv2.weight f4 [10, 6, 5, 5]
0	0x3dca72d4	0.09885183
1	0xbd531ef5	-0.051543195
2	0xbe3ef90a	-0.18649688
3	0xbe694ba0	-0.22782755
4	0x3c2aea6c	0.010431867
5	0xbd8a1c78	-0.06743711
6	0xbe38cad8	-0.18046129
7	0xbe92b8fd	-0.2865676
8	0xbecec42f	-0.4038405
9	0xbe321e76	-0.17394432
10	0x3e28de68	0.16491091
11	0xbe383b54	-0.17991382
12	0xbeb69bdd	-0.3566579
13	0xbec79e46	-0.3898794
14	0xbe8ac118	-0.27100444
15	0x3ea24ab6	0.31697625
16	0xbcf9fe69	-0.03051682
17	0xbe6318dd	-0.22177453
18	0xbe88c430	-0.2671218
19	0xbc826b28	-0.015920237
20	0x3ef4fcdc	0.47849166
21	0x3df5dd09	0.1200505
22	0x3d12fefc	0.035887703
23	0xbce553fe	-0.027994152
24	0x3e433719	0.19063987
25	0xbec5926e	-0.3858828
26	0x3d24b6de	0.04021346
27	0x3e3ece7a	0.18633452
28	0x3bcddb2e	0.006282232
29	0xbe9ccd37	-0.30625317
30	0xbeaa18be	-0.33222002
31	0x3d8ae9f8	0.06782907
32	0x3e8767c2	0.26446348
33	0x3e59045d	0.2119307
34	0xbe34af5d	-0.17645021
35	0xbe98ae86	-0.2982065
36	0x3e2a3b01	0.1662407
37	0x3ea8919d	0.32923594
38	0x3e88dd1d	0.26731196
39	0xbde0a712	-0.10969366
40	0xbe8da0bf	-0.27661702
41	0x3e5081e8	0.20362055
42	0x3ef4fd07	0.47849295
43	0x3e9fc7fd	0.31207266
44	0xbd966d99	-0.07345123
45	0xbef4e532	-0.47831112
46	0xbc06f79c	-0.008237746
47	0x3e9a808c	0.30176198
48	0x3dfc9ae6	0.12334232
49	0xbe5ab54a	-0.21358219
50	0x3ddd2926	0.10798864
51	0xbe4f63c8	-0.20252907
52	0xbecd3033	-0.40075836
53	0xbe070b78	-0.13187969
54	0x3e156e4a	0.14592853
55	0x3eb2b553	0.34903964
56	0xbc05c564	-0.008164737
57	0xbe441a5a	-0.19150677
58	0x3c120a78	0.008913629
59	0x3eabe7dd	0.33575335
60	0x3ecaf15c	0.39637268
61	0x3d6dc4b1	0.058048908
62	0xbd9aa91b	-0.075517856
63	0xbd794fe5	-0.06086721
64	0x3ed22448	0.41043305
65	0x3f06f3d9	0.5271583
66	0xbc503844	-0.012708727
67	0xbe52878d	-0.20559521
68	0xbd8dcf0a	-0.06924255
69	0x3e854fb5	0.26037374
70	0x3eade6cf	0.33965155
71	0xbe182945	-0.14859493
72	0xbe89a67e	-0.26884836
73	0xbe9d2e2a	-0.30699283
74	0x3e1b4fc8	0.15167153
75	0x3e5090bb	0.2036771
76	0x3e0de7ad	0.13857909
77	0x3dd2c40e	0.10291301
78	0x3e5b1007	0.21392833
79	0x3e92de45	0.28685203
80	0x3de64c1f	0.11244988
81	0x3d22d497	0.039753523
82	0x3e411e5c	0.18859237
83	0x3daa52bb	0.08316561
84	0x3e80619a	0.25074464
85	0x3e098b11	0.13431956
86	0x3ddab214	0.10678497
87	0x3de9ac30	0.11409795
88	0x3e172a94	0.14762336
89	0x3e0f12a4	0.13971955
90	0x3dbd8edf	0.09255766
91	0x3dabf608	0.08396536
92	0x3e205690	0.15658021
93	0x3df1a2f1	0.11798657
94	0x3e69f88a	0.22848716
95	0xbdd17aef	-0.10228526
96	0x3c1f47d5	0.009721716
97	0x3dd89b13	0.10576453
98	0x3e4c4f79	0.19952191
99	0x3d47a391	0.048739973
100	0x3d98b8a1	0.0745709
101	0xbe82874f	-0.25493857
102	0xbe215eb8	-0.15758789
103	0xbdd8abfd	-0.10579679
104	0xbe40d580	-0.18831444
105	0x3de9d6ff	0.114179604
106	0xbe7d46a8	-0.24733984
107	0xbe3cf382	-0.18452266
108	0xbdf0fb7a	-0.11766715
109	0x3d4f855f	0.050664302
110	0x3df8d2e6	0.12149601
111	0xbe0f82ef	-0.14014791
112	0xbaae3bf7	-0.0013293017
113	0xbd96bd4b	-0.073603235
114	0x3e278022	0.16357473
115	0x3e041a43	0.12900643
116	0xbe2ff7d8	-0.17184389
117	0xbd83bae4	-0.06432131
118	0xbd5c95f2	-0.053853936
119	0x3ea81a05	0.3283235
120	0xba979bb4	-0.0011566789
121	0xbe8ab8d2	-0.27094132
122	0xbe9cf77f	-0.30657575
123	0xbce9e529	-0.028551655
124	0x3edbe6ee	0.42949623
125	0xbe409a3a	-0.18808833
126	0xbe8d6755	-0.276179
127	0xbe065167	-0.1311699
128	0xbdc72853	-0.09724488
129	0x3bca65a1	0.006176666
130	0xbbd82bfc	-0.00659704
131	0xbdedf416	-0.11618821
132	0x3ce54e58	0.027991459
133	0xbd5f8862	-0.054573424
134	0x3e4c51a9	0.19953026
135	0x3e642675	0.22280295
136	0x3de631ba	0.11239953
137	0xbc9eab4b	-0.019368788
138	0x3e0cb831	0.13742138
139	0x3e9a4513	0.30130824
140	0x3e9c1404	0.3048402
141	0xbc971aea	-0.01844545
142	0x3c27099b	0.010195161
143	0x3dbbb08e	0.091645345
144	0x3e4a6252	0.19764069
145	0x3e483f88	0.19555485
146	0xbe89ac60	-0.26889324
147	0xbebbbcd9	-0.36667517
148	0xbe356223	-0.17713217
149	0xbcfc71e6	-0.03081603
150	0x3da605f5	0.08106605
151	0x3d5e3915	0.054253656
152	0x3cef3231	0.029198738
153	0xbc1d9aa7	-0.0096193915
154	0xbea0a17b	-0.313732
155	0x3e7bb569	0.24580921
156	0x3e8ff62a	0.28117496
157	0x3e4a0d71	0.1973169
158	0x3dccdf03	0.100034736
159	0xbd7da4b8	-0.061924666
160	0x3e13ea01	0.14444734
161	0x3e936078	0.28784537
162	0x3e5af547	0.21382628
163	0x3e30f197	0.17279659
164	0xbdfdf9f9	-0.12401194
165	0x3ddb032c	0.10693964
166	0x3e1bf554	0.15230304
167	0x3db6f6ba	0.08933778
168	0xbcbfa21e	-0.023392733
169	0xbe925785	-0.28582397
170	0xbd04b4f3	-0.03239913
171	0x3e023930	0.12717128
172	0xbd47fd9b	-0.04882584
173	0xbe6c8aef	-0.23099874
174	0xbf22bbda	-0.6356789
175	0xbe16ca27	-0.14725552
176	0xbe1c9040	-0.15289402
177	0xbd4efc6f	-0.05053371
178	0xbe00abe3	-0.1256557
179	0xbd409b75	-0.047023255
180	0xbd2a041c	-0.041507825
181	0xbc4ee620	-0.012628108
182	0xbc53b62d	-0.012921852
183	0x3d04582f	0.03231066
184	0x3d8ab775	0.06773273
185	0xbcaf1f6b	-0.021377286
186	0x3dfc2281	0.123112686
187	0x3d5e27cc	0.054237172
188	0xbd452539	-0.0481312
189	0xbda8ffd4	-0.0825192
190	0xbdee36ea	-0.11631568
191	0xbd916930	-0.07100141
192	0x3d8fb2f9	0.07016558
193	0x3d08a2ff	0.03335857
194	0xbdecab03	-0.115560554
195	0xbbf49c99	-0.007464957
196	0x3a1fea85	0.0006100315
197	0x3dd0650d	0.10175524
198	0x3d7a7948	0.06115082
199	0xbc3e7156	-0.011623701
200	0xbe5cd4ae	-0.21565506
201	0x3d8e521a	0.069492534
202	0x3d9c1c3b	0.07622572
203	0x3dfa1920	0.122118235
204	0xbd094034	-0.033508494
205	0xbdd09782	-0.10185148
206	0x3d92a657	0.07160633
207	0x3e0d7e59	0.13817729
208	0x3ddd3894	0.10801807
209	0xbdc0dfdf	-0.094177
210	0xbe6c72f4	-0.23090726
211	0x3e587794	0.21139365
212	0x3e8fe42e	0.28103775
213	0x3e67cd26	0.22636852
214	0x3c60c962	0.013719888
215	0xbdc2063a	-0.09473844
216	0x3e854a3b	0.26033196
217	0x3eb782f9	0.35842112
218	0x3e768825	0.24075373
219	0x3e283304	0.16425711
220	0x3ee1b81b	0.44085774
221	0x3f3f9c4c	0.74847865
222	0x3f53d1bb	0.827419
223	0x3f2de40b	0.6792609
224	0x3f1d6c1f	0.61493105
225	0xbd87a47c	-0.0662317
226	0x3d86e87b	0.06587311
227	0x3d5cb1cc	0.053880498
228	0x3da6fb6c	0.08153424
229	0xbdefbb97	-0.11705702
230	0x3cc5edb4	0.024161197
231	0x3c39e9fa	0.011347288
232	0x3d596b23	0.05308069
233	0x3d3ceacf	0.04612237
234	0xbe1b36a5	-0.15157564
235	0xbdd32d34	-0.10311356
236	0xbd16dea3	-0.036833417
237	0x3cf5ddc0	0.030012965
238	0x3cac25c2	0.021014098
239	0xbd58d2bf	-0.052935358
240	0xbdb17009	-0.08663947
241	0xbd48c2c2	-0.04901386
242	0x3c5155d8	0.012776814
243	0xbe1069ea	-0.14102903
244	0xbd8eaf2a	-0.06967004
245	0xbe1571b0	-0.1459415
246	0xbd059aa0	-0.032618165
247	0xbd184412	-0.037174292
248	0xbe1652fc	-0.14680094
249	0xbe587354	-0.21137744
250	0xbe34f53f	-0.17671679
251	0x3e5968bf	0.21231364
252	0x3e80c0ab	0.25146994
253	0x3e864c9a	0.26230317
254	0x3e122ca3	0.1427484
255	0xbdf9a02b	-0.12188753

conv2.bias f4 [10]
0	0xbf7cab18	-0.9869857
1	0x3e718917	0.23587452
2	0x3f288fb1	0.65844256
3	0xbf2aaf67	-0.6667389
4	0x3de4ad90	0.11165917
5	0x3f886bf8	1.065795
6	0xbe32ad3f	-0.174489
7	0x3ed5d8d4	0.4176699
8	0x3d98467e	0.0743532
9	0x3f9c203e	1.219734

fc1.weight f4 [10, 10]
0	0x3e76619c	0.24060673
1	0xbd246b2e	-0.040141277
2	0xbeb86a4d	-0.360186
3	0xbeb9bde4	-0.36277688
4	0xbedc7a32	-0.43061978
5	0xbe02e6c4	-0.12783343
6	0xbd37bfce	-0.044860654
7	0x3de911d3	0.11380353
8	0xbee04ff4	-0.43811
9	0x3c274407	0.01020909
10	0x3f230dce	0.6369294
11	0xbea68a1f	-0.32527253
12	0x3de7d46d	0.11319814
13	0x3efd10ca	0.49426872
14	0xbe9c71da	-0.30555612
15	0xbf19707c	-0.5993726
16	0x3ece23d3	0.40261707
17	0xbe838b81	-0.2569237
18	0xbe99b5e5	-0.30021587
19	0xbe91c12f	-0.284677
20	0xbea72c82	-0.32651144
21	0x3ed6022a	0.41798526
22	0xbd8ea9b8	-0.06965965
23	0xbd0fd8f2	-0.035119005
24	0x3c910f09	0.017707365
25	0x3e951d0a	0.29123718
26	0x3e358d0c	0.17729586
27	0xbdc998fa	-0.09843631
28	0xbe4660cb	-0.19372861
29	0x3eb3ad1b	0.35093006
30	0xbe015da2	-0.12633374
31	0xbe34d298	-0.1765846
32	0x3ebcd0d8	0.36878085
33	0xbe96b1d4	-0.29432547
34	0x3e8f7a68	0.28023076
35	0x3eb0be24	0.34520066
36	0xbe663602	-0.2248154
37	0xbe6f2167	-0.23352586
38	0x3e6c86e2	0.23098329
39	0xbeb5ff6d	-0.35546437
40	0xbcf928d7	-0.030414982
41	0xbe4f71b1	-0.20258214
42	0x3e7739a1	0.24143077
43	0xbc3ae887	-0.011407978
44	0x3d5f189d	0.054466832
45	0x3e690fb9	0.22759904
46	0x3edde26d	0.43336812
47	0x3ed7e61e	0.42167753
48	0x3e27543f	0.16340731
49	0x3f0264ab	0.5093486
50	0xbe7ed046	-0.24884138
51	0xbe2b7de8	-0.16747248
52	0x3e6a5fdd	0.22888131
53	0x3e39e531	0.18153836
54	0x3e9299dd	0.28633013
55	0x3f0e16f6	0.55503786
56	0x3c219470	0.00986205
57	0x3e47e5a7	0.19521199
58	0x3dc834d7	0.097757034
59	0xbed2f08d	-0.4119915
60	0x3e03f95d	0.12888093
61	0x3eb57844	0.35443318
62	0x3f0a1dd8	0.5395179
63	0x3db37425	0.08762387
64	0xbe1df8e0	-0.1542697
65	0x3e5c7ce5	0.21532018
66	0xbe1f93f1	-0.15583779
67	0x3e57764e	0.21041223
68	0x3f3eec75	0.74579555
69	0x3bd58def	0.006517164
70	0xbdede491	-0.11615861
71	0xbd0aaea1	-0.033857945
72	0xbe7c9bfe	-0.24668881
73	0x3dce9e3a	0.10088773
74	0x3f1909da	0.5978066
75	0xbe97e54b	-0.29667124
76	0x3e8ef90b	0.2792438
77	0x3f20e411	0.62848
78	0x3dc5daa1	0.09660841
79	0xbd4881b2	-0.048951812
80	0x3e37d251	0.17951323
81	0xbef94ef9	-0.48693064
82	0x3ecb46b8	0.39702392
83	0xbd1b2d3b	-0.037884932
84	0xbf243d1a	-0.64155734
85	0xbe17b5da	-0.14815465
86	0xbef5e30d	-0.48024788
87	0x3cb5b72d	0.022182072
88	0xbf061eac	-0.5239055
89	0x3e11eb1e	0.14249846
90	0x3ee1fde7	0.44139025
91	0xbedcaea1	-0.4310198
92	0xbec10944	-0.37702382
93	0x3ed381d9	0.41310003
94	0x3cfaae8a	0.030600805
95	0xbedc3637	-0.43010113
96	0xbe9431ec	-0.28944337
97	0xbec24ac3	-0.37947664
98	0xbdee8ba5	-0.11647729
99	0xbe0febac	-0.14054745

fc1.bias f4 [10]
0	0xbe2978b6	-0.16549954
1	0xbf40199c	-0.75039077
2	0x3f13c0fe	0.5771636
3	0x3edbfc43	0.42965898
4	0x3f635497	0.8880095
5	0xbb83d2b7	-0.004022922
6	0xbe89979c	-0.2687348
7	0xbe881806	-0.26580828
8	0xbe15f530	-0.14644313
9	0xbf274466	-0.6533874
