homework4/cifar_net_2epoch.pth (torch, 252117 bytes, 10 tensors)

conv1.weight f4 [6, 3, 5, 5]
00000000: 1552 3f3e c8f4 cc3e 5ca4 a93e c742 713d
00000010: 041b a23d f753 9d3e 7b81 943e 0a20 15be
00000020: 30cd 50be cba8 b43d a2cd 4f3e 647a 4e3d
00000030: d44b 4bbe af2a 99be e758 b53d c52c 5cbc
00000040: e487 abbd b587 97be 5a56 3ebe 952b 523d
00000050: 8732 17bd 821b e3bd f254 0ebe 6dce 06be
00000060: b9cd a7bd 9d58 e3bc 9b24 46be 3f28 51be
00000070: c4ee 03bf c597 d2be 1849 123e cc74 f5bc
00000080: 9467 c4be deb2 e4be 979c 5cbe 6dd2 823e
00000090: f3b2 38bd bba5 92be e510 85be 173b 263e
000000a0: 6575 37bb 6645 933d 6811 97be f0dd 11be
000000b0: fd40 853e d687 cc3d 5797 16bd 8b94 3abd
000000c0: 693d 63bd 0235 633e 9312 363e 8945 c03d
000000d0: 0861 3abe cbd8 7cbe 2c8d 1ebe 6f1a 7a3e
000000e0: b17c 183e ed5e 9cbd 3448 7ebe 8e43 8e3d
000000f0: 7f90 473e f234 013d f69a 69be ce2e 4ebe
00000100: 2e2b a03e 66d4 d23d b837 fe3d 2748 07be
00000110: bfd4 2cbc 6b7d 343e 1531 8e3e 0965 493e
00000120: 2ec5 ad3d fe1f d23c db28 093e 2981 e43d
00000130: 620a 21bc ae44 823b eb5b 523d 36cb 063d
00000140: 7d04 ac3c 64b5 7dbd 8790 50be 7694 ba3d
00000150: c3b6 563e cee7 03bc 76f2 81be 53ca 46be
00000160: 48d0 863d 852d a63e 225a f6bd 7a91 88be
00000170: e3d8 efbd ddae ed3d b8a8 b33e 650c 93bd
00000180: c033 2ebe be92 b5bd a4a1 593e 343a 1b3e
00000190: 43b9 31bd 91c1 ec3c 7533 8bbc 07ba 9cbd
000001a0: ff1b abbd 8331 f5bd 8c33 21be 8272 59be
000001b0: 281f c1bd 228e 043e 8c48 fdbd c59e 4cbe
000001c0: de55 7abe cfbf 2d3e e0b4 813e cbab 31be
000001d0: f18f 5fbe 8d24 45be bb4f d43d a558 793e
000001e0: 86ae 44bd 7dbb 84be 2f27 40bd 3fc7 973d
000001f0: bb83 d93d 9fa9 b7bd ac60 57bd 2ef9 103d
00000200: b9e8 d33d a511 b93d a887 09be 8f1e 31be
00000210: da41 0bbc 276a 1f3e deab 2f3e f760 30be
00000220: 46e3 43be 8bab bebc 7f75 503e b15d c83e
00000230: 20ca d8bd 4c59 04be 73a9 88bc 6f29 1c3e
00000240: a13f a53e 6563 56bd 181b 14bb 85e0 c93d
00000250: 0135 a13e 293d 4b3e b7db 023c d634 a9bd
00000260: 5875 82be 7ef2 a6be 938f c1be 30a2 53bd
00000270: 78e1 20be 8aa5 babe 43dc 81be 99bf 4abe
00000280: 82fb 6cbd fed9 73bd e58c e53c 4e41 8b3d
00000290: b87d 503e 2587 213e e6dc 933e 4359 ae3e
000002a0: bfe9 6a3e 6c87 033e 49ee 933e 530f 393e
000002b0: d53d a93e 918d 3e3e 6c6e 6f3e 5546 2a3e
000002c0: 9722 37bd 9e52 e53c 8c7f 14be a335 77bd
000002d0: 0b72 9dbd cb18 92bd abba 3abe 5b31 89be
000002e0: b17c ca3b fcaa 12be c422 40be 5c31 b23b
000002f0: 345f 1a3e 3b92 1a3e 1615 01be b775 493d
00000300: 9507 613e 174e 423e 7598 883d 7ea1 eabc
00000310: 9b7d 993d 9297 a3bc 1c07 03bd b52b a5bd
00000320: 43cd 473e ad5b bd3d 44fc 75bd 2f17 27bd
00000330: d6a7 c1bd 13cf 0d3e e683 11be 7604 40be
00000340: e4e1 c8bd 6d93 78bd 7d7a b03d bd72 bdbc
00000350: ea0d b53c 8db8 bc3d 9b5f a73d bd62 e2bd
00000360: afb0 b43d ff0b 493e 7f2b 5a3e 4910 973d
00000370: e517 3bbd 33c4 bc3d ccf7 b7bc 7410 b13d
00000380: ca1d 5abb 9735 fe3c de11 ea3e 013c b23e
00000390: dbe4 023f bc12 863e 2985 5e3d dbf9 093f
000003a0: aae7 1e3f d265 153f a9a4 fb3e e2f2 88be
000003b0: d824 17be a5a4 9cbe 6471 84be 30d4 4cbe
000003c0: 04de b5be d559 cbbe 46fe 99be c02c acbe
000003d0: 2600 65be 9206 7bbe 472d 05be 2ea6 86bd
000003e0: 4820 8cbd b693 95be f79e e8bd b01f 493e
000003f0: b20e efbc 9565 c8bc 6e22 2cbe cda1 f4bd
0.18683656 0.40030503 0.3313321 0.058901574 0.07915309 0.30728123 0.29005036 -0.14563003
-0.20390773 0.08821257 0.20293286 0.05040969 -0.19853145 -0.29915377 0.088548474 -0.013438408
-0.083755285 -0.29595724 -0.18587628 0.051311094 -0.03691342 -0.11089231 -0.13899592 -0.13164683
-0.08193535 -0.027752215 -0.19349901 -0.20425509 -0.515362 -0.41131416 0.14285696 -0.02996292
-0.38360274 -0.44667715 -0.2154411 0.25551167 -0.045092534 -0.28642067 -0.25989452 0.16233478
-0.0027993557 0.07190971 -0.29505467 -0.14244819 0.26026145 0.09986846 -0.036765423 -0.045551818
-0.055478487 0.2218819 0.17780523 0.09388263 -0.18201077 -0.24692075 -0.1548354 0.24424146
0.14891316 -0.07635293 -0.24832231 0.06946479 0.19488715 0.031544633 -0.22813019 -0.20135042
0.31282943 0.10294418 0.12412971 -0.13211118 -0.0105487695 0.17625968 0.27771822 0.19667448
0.08484875 0.02565002 0.13394491 0.11157448 -0.009829136 0.0039754724 0.05135719 0.03290864
0.020998234 -0.061940566 -0.20367633 0.09110348 0.20968156 -0.008050872 -0.25380296 -0.19413118
0.06582695 0.32456604 -0.1202891 -0.2667349 -0.1171129 0.11605618 0.3508966 -0.071800984
-0.17011929 -0.088658795 0.21253067 0.15158921 -0.04338957 0.028900893 -0.01699231 -0.076526694
-0.08354949 -0.11972334 -0.1574232 -0.21235088 -0.09429771 0.12944844 -0.12367353 -0.19982441
-0.24446818 0.169677 0.2533331 -0.1735069 -0.21832253 -0.19252224 0.1036677 0.24350221
-0.048018 -0.25924292 -0.04691237 0.0741105 0.10620829 -0.089678995 -0.052582428 0.035393886
0.10347123 0.090365686 -0.13430655 -0.17296813 -0.008499587 0.15567838 0.17155406 -0.17224489
-0.19129667 -0.023275157 0.20357321 0.3913398 -0.10585427 -0.12924689 -0.016682362 0.1525018
0.32275108 -0.052340884 -0.0022599157 0.09857277 0.3148575 0.1984755 0.007986954 -0.08262031
-0.2548015 -0.32606882 -0.3780485 -0.051668346 -0.1571101 -0.3645442 -0.2536336 -0.19799651
-0.057857044 -0.059534065 0.028021285 0.06799565 0.20360458 0.1577421 0.2887947 0.34052476
0.2294073 0.12844628 0.28892735 0.18072252 0.33054987 0.18608691 0.23381966 0.16628392
-0.04471072 0.027993497 -0.1450178 -0.060353886 -0.076877676 -0.07133635 -0.1823527 -0.26795468
0.006179415 -0.14323038 -0.18763262 0.005438013 0.1507538 0.15094845 -0.126057 0.049184527
0.21975549 0.18975101 0.06669704 -0.028641459 0.074946605 -0.019969735 -0.031989202 -0.08064977
0.19511895 0.092460014 -0.060055032 -0.040793594 -0.0945584 0.13848524 -0.14210472 -0.18751702
-0.0980871 -0.06068747 0.08617113 -0.023126 0.022101361 0.09214888 0.08172532 -0.11053989
0.08822762 0.19633482 0.21305655 0.07376153 -0.045677084 0.092171095 -0.022457026 0.08645716
-0.0033281916 0.031031413 0.45716757 0.34811404 0.51130456 0.26186168 0.05432621 0.53896874
0.6207224 0.5835849 0.49149063 -0.26747805 -0.14760149 -0.30594364 -0.2586776 -0.20002818
-0.35520947 -0.39716974 -0.30076808 -0.33627892 -0.22363338 -0.24514225 -0.13005553 -0.06574665
-0.06842095 -0.29214257 -0.11358445 0.19640994 -0.029181812 -0.0244625 -0.16810009 -0.119449235

conv1.bias f4 [6]
00000000: 1162 a0be 974f af3c 21f8 41be d4c3 d2be
00000010: 45a0 4fbd b32f 073f
-0.3132482 0.021400256 -0.1894231 -0.4116503 -0.050689954 0.5280716

conv2.weight f4 [16, 6, 5, 5]
00000000: 7b9d 5f3e edbc bc3d fe68 b43d d7f2 963e
00000010: 03f2 d13d 45e8 223d 92b1 e03d 0cb0 06be
00000020: 0d00 cb3e 61b3 16bd c05b 91bb cd35 c63d
00000030: 5db0 6fbe 48fc f93e 85c1 1fbe 3e50 a8bd
00000040: b123 45bc 24cc bdbe bac0 e03e a0f0 4abe
00000050: e83c 21be 796b 35be 26a0 c5be f4f3 023e
00000060: 55bd 32be 21dc 023d 1a26 4c3e b9cb 34bd
00000070: c531 ce3d 5884 343d 0a0a 90bc a2b5 e13d
00000080: 2503 80bd 7034 18bd fe12 d03d 20ae 9dbd
00000090: cce2 773e 8995 d73c 1175 33bd a36d cd3d
000000a0: ba05 19be c371 1c3e 1316 f1bc 9d98 06be
000000b0: 0903 ba3d d076 84be d9e6 833d a6c5 cfbd
000000c0: 503c 11be e97c abbd eb2b 8ebd 9342 91bd
000000d0: 244a 31be c696 63be 596b b13c eba9 2fbe
000000e0: abb7 51be 6530 82be d753 9abe 196f c6bd
000000f0: b6c9 5e3d bd1d 80bd 2ad0 26be 29ff 20be
00000100: 7673 32be c29e ef3d 53e3 823d eff9 f0bc
00000110: b07c 8fbd 54fc bb3b 3932 db3d 9d40 f93c
00000120: 81ab 863d de41 d13d d796 693d 2217 ca3d
00000130: 325b 053d d920 99bd 71b4 a1bd 9ef7 0f3e
00000140: 175a 3f3d 6f4e ee39 f7d7 adbd 0396 383d
00000150: 7e27 693e 09f5 033e 9a0a 48bd 0f1b 01bd
00000160: e3b8 f4bc ffdd b93d 0f78 d7bc 3d1a 15bd
00000170: 4ee6 7a3c 301c d0bc a353 8abc 2b10 23bd
00000180: 9a13 e6bb edd6 583d 659e 39be f25a 0ebd
00000190: 0036 e2bc 69f2 273e 5793 47be cfe3 253e
000001a0: 246d 17be adc0 58bc 7c77 893e 6479 80be
000001b0: 3ac7 c53e 7363 e9bd 19ad bcb9 3107 743e
000001c0: efbd 65be 8987 c93e 2513 79bd 11bd f0bb
000001d0: 110f d93d 7c8c f7bd 5886 8f3e 2576 38bc
000001e0: c50f 16be 3f46 7abe 0d58 4dbe 0fc7 2bbc
000001f0: cb75 03be 7b4b b23c 4253 683d b6e4 e63d
00000200: 6610 b1bd b398 8d3d 6096 453d d312 f83c
00000210: 80d2 efbb eea4 cebd 311d 3e3c bfcb 953c
00000220: dca0 5d3c f023 8abd c703 5ebd 46c5 c0bd
00000230: 571d 7abd b525 083d c7b9 5c3c bdf1 77bd
00000240: 5c50 02bc 9b7a 7abd ba6e 10bd d2f8 213c
00000250: ce88 0ebe 1107 c1bd 156a 6ebd 84ee 25bd
00000260: 5641 adbd d28a 713d d232 5e3c 888c 58bc
00000270: 76fc 6f3d 574c a9bd 9235 d83d 7032 f3bd
00000280: 64a7 0dbe d73f 17bc e97a 23be 0cef 07be
00000290: 1b6c 33be 6800 c0bc 8886 9b3b 5470 64bd
000002a0: 3174 c83c 7851 83bd d0a6 4a3d 9688 b13d
000002b0: 2797 7abc f485 e83c b310 ca3c fe13 81bd
000002c0: 156a d33d 88e5 573d c4c4 b73c e055 693b
000002d0: 5e21 93bd 608b f3bd 2fad c1b9 fa01 633c
000002e0: f2e3 58bd 6068 9dbc ab76 81bd 0da0 f4bd
000002f0: 1209 26bd 832f 91bd 80b1 06bd ce57 b1bd
00000300: b6db f8bd d902 db3c 40dd 14be 4caa d0bd
00000310: 933e 51bb 91f8 26bd 8e2a d03a e1d3 5dbd
00000320: 9da4 983d de39 9e3c 86c0 7ebd bdab acba
00000330: 312a 27be f7ed 923d 9005 fa3c a330 e73c
00000340: 41b1 babc a4be 8b3d 6619 603c a5c0 8ebd
00000350: 7463 d63c 5922 4d3d 577f c73d 3661 4abd
00000360: b93b e4bd e303 f7bd 8d30 10bd 95e3 9e3d
00000370: 9649 e23d ce3f 113c b02d a43a d5f6 37bd
00000380: 3ae2 ac3c d724 133e 657e 183c bd45 7c3d
00000390: cfdb 743d 913a d93b d93a 153e 39a7 123e
000003a0: d146 f33d 955d 513c fad1 2c3e b02d 61bd
000003b0: 7094 c0bd 9601 eebd 4e53 0d3d 32d2 803d
000003c0: 80c0 b23e 5f1b a33e 9ec0 393e 2793 3cbb
000003d0: d8f0 c73c 9e33 26bc 4767 f7bd eba6 c5bc
000003e0: 3bdf cb3b e3c1 ef3b 1e7b 863d 9cd7 193e
000003f0: c613 ed3d b1ab 323e 2605 0ebd 2401 163d
0.21837418 0.09215722 0.08809088 0.29482147 0.10251238 0.03977229 0.10971369 -0.13153094
0.39648476 -0.036792163 -0.0044359863 0.096782304 -0.23407121 0.48825288 -0.15601166 -0.0821843
-0.012032435 -0.3706981 0.4389704 -0.19818354 -0.1574589 -0.17716779 -0.38598746 0.12788373
-0.17455037 0.031948213 0.1993641 -0.044139598 0.100680865 0.044071525 -0.017582912 0.11020972
-0.062506 -0.037159383 0.101598725 -0.07699227 0.2420761 0.026316421 -0.043812815 0.10030677
-0.14943591 0.15277772 -0.029429471 -0.13144155 0.0908261 -0.25871897 0.06440515 -0.1014512
-0.14183164 -0.08373434 -0.069419704 -0.07092776 -0.17313439 -0.22225484 0.021657633 -0.17154662
-0.2048022 -0.25427547 -0.3014209 -0.09689159 0.054391585 -0.06255672 -0.16290346 -0.15722336
-0.17426857 0.117002025 0.06391015 -0.029416053 -0.07006204 0.005736867 0.107029386 0.030426318
0.065756805 0.10217641 0.057028618 0.098676935 0.032557674 -0.07476968 -0.078957446 0.14059302
0.046716776 0.00045453335 -0.08488458 0.045064937 0.22768971 0.12886442 -0.048838235 -0.031519946
-0.029873317 0.090755455 -0.026302366 -0.036401976 0.015313698 -0.025404066 -0.016885584 -0.03981034
-0.0070213797 0.052939344 -0.18126829 -0.0347547 -0.02761364 0.16401066 -0.194898 0.16200183
-0.14787728 -0.013229531 0.26848972 -0.25092614 0.3862856 -0.113959216 -0.00035987122 0.23830868
-0.22435735 0.39361218 -0.060809273 -0.007346757 0.10598577 -0.12087342 0.28032184 -0.011258637
-0.14654453 -0.2444086 -0.2005312 -0.010484471 -0.12837903 0.021764508 0.056720026 0.11274092
-0.08645706 0.06913891 0.048239112 0.030282414 -0.0073187947 -0.100900516 0.011603639 0.01828563
0.013527121 -0.06745136 -0.05420282 -0.09412627 -0.061063137 0.033239085 0.013472027 -0.060533274
-0.0079537295 -0.061152082 -0.035261847 0.009885984 -0.13919374 -0.09425176 -0.058206636 -0.04051067
-0.084597275 0.05897028 0.013561921 -0.013217099 0.058590375 -0.08266514 0.10557093 -0.118748546
-0.13833386 -0.009231529 -0.15964855 -0.13274783 -0.17521708 -0.023437694 0.004746262 -0.055771187
0.024469467 -0.06412023 0.04947549 0.0866863 -0.015294827 0.028384186 0.024666166 -0.06302641
0.10322968 0.052709132 0.022432692 0.0035604164 -0.07184099 -0.11891818 -0.0003694086 0.013855452
-0.05295176 -0.019214809 -0.06321462 -0.1194459 -0.040535994 -0.0708914 -0.03288412 -0.086593255
-0.121512815 0.026734756 -0.14537525 -0.101887316 -0.0031928166 -0.040764395 0.0015881823 -0.05415714
0.074532725 0.019314703 -0.062195323 -0.0013173741 -0.16324688 0.071742944 0.03052023 0.028221434
-0.0227896 0.06823471 0.01367793 -0.06970338 0.02617047 0.050081585 0.09741085 -0.049409114
-0.11144204 -0.12061288 -0.03520255 0.077582516 0.11049192 0.00886531 0.0012525823 -0.04491313
0.021103967 0.14369522 0.009307479 0.061589945 0.05977994 0.006629296 0.1457323 0.14321603
0.118787415 0.012778659 0.16876975 -0.05497521 -0.09403312 -0.11621396 0.034503274 0.062900916
0.3491249 0.3185682 0.18139884 -0.0028774233 0.024406835 -0.010144142 -0.120802455 -0.024127444
0.0062216795 0.0073168143 0.065664515 0.15023655 0.11576037 0.17448308 -0.03467288 0.03662218

conv2.bias f4 [16]
00000000: 65b0 0bbf d1e5 76be 1c58 65be 1aba a93e
00000010: cbf9 4cbe 2cfd 4f3e 89a2 433e 8b9b 4f3e
00000020: 2f14 bebe d97d c23d d8c4 47bd a29b ebbd
00000030: c53e 893f d9ec 2b3e 6b79 d93d 5ac0 aabe
-0.5456603 -0.24111106 -0.22396892 0.33149797 -0.20017163 0.20311421 0.19104971 0.20274179
-0.37124774 0.0949666 -0.04877171 -0.11504294 1.0722281 0.16789569 0.10618862 -0.33349878

fc1.weight f4 [120, 400]
00000000: 26ca e93c 1e87 8b3c 15d9 223d 33af 1b3d
00000010: bbd7 093c ec73 053d 3333 103e 506a 363d
00000020: 55d1 ce3d 7e85 843d 3233 983c f5ff fa3c
00000030: c3da 1c3d 8f35 ec3d ab64 0d3c 3324 21bc
00000040: 501d 6a3b c9d9 1abd e3d5 153c d517 ed3c
00000050: 5515 bdbc 4c9f c33c dff0 e33c 7771 023d
00000060: 4292 8e3d d045 d2bd 81d9 6bbc a4dc 5fbc
00000070: 1508 173d cb7f 16bb 373c 49bd 3a08 e83c
00000080: e4d8 c4bc caf9 8b3d c58e 943d ea9e 7f3c
00000090: 1e13 febc f6c1 f8bc b147 e03b 37c1 c33c
000000a0: a1b2 9339 21fe 7e3d 3655 7bba 75d2 a0bc
000000b0: ee5f f53b 5936 123d 7ccb 593d 2e53 dd3c
000000c0: 51a5 053c f3ae 7c3c 27ec b6bb ceee 52bd
000000d0: c016 7cbb c9fe 5e3d 4520 7abc e4cb b63b
000000e0: 5367 693d d8d1 243d 7155 3b3d 9d55 88bc
000000f0: 41bf 87bc 4b35 a43c 14ea 853d a2af 9039
00000100: b0f7 32bd 2c22 89bd 91f8 303c 1259 673d
00000110: 3839 d83c 5440 523d d695 b2bd c502 8b3d
00000120: 944c 363d ab70 f23c 827e 5fbc 396e 403d
00000130: 79a5 453d defc 8b3b 3422 573d cfc3 17bb
00000140: d1bf 9dbb b1f9 833d 252b 5fbb 301d f23c
00000150: 15e1 e13c d9de 623d ae4a 583d 2fed 5e3d
00000160: 1a85 743d 635c 093b c74d 443a 97bc 8c3c
00000170: fa70 823c 2c34 90bc 53ee 0cbd eb7d 77bd
00000180: 8963 03bd 4343 20bd 1640 55bd bb0f edbc
00000190: d6d6 733d a1bb e8bb 9a39 0abe cfdb ccbd
000001a0: 6f60 47bd 5d68 b73d a685 3bbd 6174 c7bd
000001b0: da05 ccbd eab8 a2bd e05f bfbc 63cf d6bc
000001c0: 3946 7bbd 33b2 7dbd f822 fcbb e406 1a3d
000001d0: 712b 243c 20a1 4e3c f982 a2bd df2a d13c
000001e0: 4d65 ae3d 15cd e73d ec08 0c3e da8a 283e
000001f0: 13fe 703e 319b 82bc a345 403d a49a 793c
00000200: 6cb7 72bd eda7 27bd 26d6 17bd 26de b93c
00000210: 0762 3d3d 55f9 b23c ef7e 03bd 072f afbd
00000220: 243d 85bd cddb efbc 28d9 d7bc 3160 853c
00000230: 706e a7bd d79c 95bd 69b0 533c ea41 e0bd
00000240: 4dac 70bd c575 f7bd 5cba 0abe f8bf 98bd
00000250: 8015 cdbd 05cb dfbd c861 cf3c ea5f 753d
00000260: e4b3 263d 3ed0 ea3c dc31 733d 1f94 013d
00000270: 8706 f93c 66a8 e73c 4634 3c3d bffb 783d
00000280: bace 84bd 451e eebc f6bd 193d c935 adbc
00000290: e027 58bd 5fdb 50bd dbf1 36bd aa3a d63c
000002a0: fcad 093d eea6 25bc 2516 1bbb 1483 b5bc
000002b0: 4f76 63bc 7271 683c de35 88bd 3091 0ebb
000002c0: d36f a03d 62e0 173d 7db7 2c3d e032 b8bd
000002d0: 9ff4 93bd 73b2 b03c a818 febc e152 ecbc
000002e0: 5567 43bd fa21 bcbc 1c06 61bd a596 f73c
000002f0: 85d0 753c 91d3 b4bc 8b67 34bd 2884 65bd
00000300: 0891 1abd dad3 78bc bc79 01bd 19f5 15be
00000310: f117 2dbd 0233 33bc e5a8 40bc 547d 193b
00000320: 4f40 91bc 77da 843d 778a 373d 00ad f53d
00000330: 9264 023d 9d9d 05bd e8ff feba dfa3 233d
00000340: 007f 313d 5bf5 993b 799a 05bd abe3 ca3c
00000350: 9f07 2c3d 574a b83c d8d4 f2bc d21c bf3c
00000360: bebf 80bd 6c09 673d fbe5 543d bfbe 2f3d
00000370: f7f4 c93c e76d 4fbb c5ac 96bc 3a31 ef3c
00000380: 25c2 ccbc 693d 063d 36d9 69bc 75e0 433d
00000390: 142a cc3d c995 a63d 3800 8b3d 8940 a8ba
000003a0: 04df 413c a1fa da3c 85ba 89bd 4a8d a73c
000003b0: 857e 743d 1c83 4c3c bc6a 8abc ee3c c3bd
000003c0: eeda 003d 0e7a 5c3d 55b3 663d ff2f 28bc
000003d0: 0ecb 84bd e146 b33c c505 453d 7a7f 4b3d
000003e0: 7ed4 4fbc 0ed1 d9bc 1af8 293d 8d01 6d3d
000003f0: 11c1 24bd 7292 ec3c 979f a33c 2d01 363d
0.028538775 0.017032202 0.039757807 0.03800888 0.008413251 0.032581255 0.14082031 0.04453498
0.10098521 0.06470774 0.0185791 0.030639628 0.038294565 0.11533653 0.008629958 -0.009835291
0.0035723038 -0.037805352 0.009145233 0.028942028 -0.023081461 0.02387967 0.027824817 0.03184649
0.0696149 -0.10267222 -0.014395119 -0.013663445 0.036872942 -0.0022964354 -0.04912969 0.028324235
-0.024029203 0.06834753 0.072537936 0.015601853 -0.031014975 -0.030365925 0.006844484 0.023895843
0.00028171114 0.062254075 -0.00095875876 -0.019631604 0.0074882424 0.03569636 0.053172573 0.027017202
0.00815709 0.0154225705 -0.005582351 -0.051497273 -0.0038465708 0.0544422 -0.015266483 0.005578505
0.056983303 0.040239185 0.04573578 -0.016642386 -0.01657069 0.020044943 0.065387875 0.00027596677
-0.043693244 -0.06695971 0.01080145 0.05648143 0.026394472 0.05133088 -0.08719985 0.067876376
0.044506624 0.02959474 -0.013641002 0.046980117 0.04825351 0.0042720875 0.052522853 -0.0023157483
-0.004814126 0.06444109 -0.0034052816 0.029554933 0.027573148 0.055388305 0.052805595 0.054425415
0.059697248 0.0020959608 0.00074883964 0.01717977 0.015923012 -0.017603002 -0.03440697 -0.06042282
-0.032077346 -0.039126646 -0.05206307 -0.028938165 0.059531055 -0.0071024452 -0.13498536 -0.10002863
-0.04867595 0.089554526 -0.045781754 -0.097389944 -0.099620536 -0.07945426 -0.023361146 -0.026221937
-0.061346266 -0.061937522 -0.0076945983 0.037604228 0.010020123 0.012611657 -0.07935137 0.025533138
0.08515415 0.11318413 0.13675278 0.16459218 0.23534422 -0.015943142 0.04694141 0.015234623
-0.059256956 -0.04093163 -0.037069462 0.022688936 0.046236064 0.021847406 -0.032103475 -0.08553892
-0.06505802 -0.029279614 -0.026348665 0.01628122 -0.08175361 -0.073053055 0.012920477 -0.10950072
-0.05875807 -0.1208301 -0.13547653 -0.0745849 -0.100138664 -0.10927395 0.02531518 0.059905924
0.0406989 0.02866375 0.05937372 0.0316354 0.03039862 0.02827854 0.04594829 0.06078696
-0.064847425 -0.029067168 0.037534676 -0.02114381 -0.052772403 -0.05099046 -0.044664245 0.02615102
0.03361319 -0.0101106 -0.0023664322 -0.02215723 -0.013883187 0.014187204 -0.06650899 -0.002175402
0.07833829 0.037079223 0.042167176 -0.08994079 -0.07224392 0.021569466 -0.031017616 -0.028848113
-0.047705967 -0.02296542 -0.054937467 0.0302232 0.015003328 -0.022073539 -0.04404406 -0.056034237
-0.03773597 -0.015187228 -0.031610236 -0.14644279 -0.04225916 -0.010937454 -0.011759018 0.0023420649
-0.01773086 0.06486981 0.044809785 0.11995888 0.031834193 -0.032621015 -0.0019454928 0.0399512
0.043334007 0.004698438 -0.03261802 0.024766764 0.041999456 0.022496385 -0.029642507 0.023329172
-0.06286572 0.05640547 0.05197714 0.04290652 0.024652941 -0.00316512 -0.01839293 0.029198278
-0.02499492 0.03277341 -0.0142729785 0.04782148 0.09968963 0.08134038 0.06787151 -0.0012836616
0.011832956 0.026730837 -0.06725029 0.020453114 0.05969097 0.012482431 -0.016896598 -0.09533106
0.031458788 0.053827338 0.056323368 -0.010265349 -0.06484042 0.021884384 0.048101205 0.049682118
-0.012684939 -0.026588943 0.041496374 0.057862807 -0.040223185 0.028878424 0.01997356 0.044434715

fc1.bias f4 [120]
00000000: 6ada 1bbe 7974 2fbd bdce e0bc 2f45 163d
00000010: c0d5 1a3b f5b0 743d 58e3 8c3d 681b 25b9
00000020: 6c92 0f3d c4d4 253d f54f e23d 584d 7dbd
00000030: 014f c83c 8865 87bc c38d 253e 2d96 ec3d
00000040: 2c45 35bd 582b 80bd beec d13d d947 c5bd
00000050: 5eda 383d 1302 0a3e f388 9d3d 0759 b7bc
00000060: 4b17 bb3d df21 903d de5c f33c 2a0f 213e
00000070: 34ac 533d f919 59bd dede 023e 555a ccbc
00000080: 28b9 cd3d ba60 ab3d f218 a23c c679 0a3e
00000090: 66fe da3c b309 013d 224c dd3d 7eb4 063d
000000a0: f372 8e3d 1ba0 0b3d 639f 1d3d 1dd5 273e
000000b0: f6f9 3c3d 53f6 f93c 330c 723d 3d6f c4bb
000000c0: be77 19bc 14f4 10bd 682d 65bd 342f 01bd
000000d0: 2d46 36bc 4ecd 44bd af00 bfbb ccd1 11bd
000000e0: 13ec 273e ce61 3dbc 95d7 f2bd d970 a33c
000000f0: acce 243e abb0 fcbc d06e f93c f9ba 42bd
00000100: 4665 77bc 5970 013e 66fe c93a d49b abbd
00000110: 3d2b adbc 2a17 3d3e 99aa 1d3d 954f 74bd
00000120: 4209 503b 3c5e 9dbc ed8f 80bd d8ba 593d
00000130: efae 34bd e308 0f3c 31c8 623e 1de1 ae3d
00000140: ccd5 28be cc10 55bd ed26 da3b 00f8 033e
00000150: e6b4 b03d 4180 063b 3965 be3c 0f95 68bd
00000160: 47e0 c53d c66b 71bd 4328 5a3d 3a02 93bc
00000170: b1f9 27bd 38f6 f83c 5013 c63c 3389 623e
00000180: 0949 4ebe 02ff 2b3e f09f c8bc c540 db3d
00000190: a9d7 8dbc fd25 b23d 4112 7b3b df56 8dbd
000001a0: 51b3 263d c9d1 173d cb58 c63c 6a17 98bc
000001b0: 0c84 053c bb7c d13c 90f1 763d beb6 29be
000001c0: 4411 8ebc 6904 1a3d 89cf 0cbd 11fb a73d
000001d0: 5dba d3bc dbc0 93bd c706 833d 012c 22be
-0.15220037 -0.042835686 -0.02744233 0.036687072 0.002362594 0.059739072 0.068793 -0.00015745836
0.03505175 0.040486112 0.11050407 -0.06184134 0.024451734 -0.016527906 0.16167359 0.11552081
-0.04425542 -0.06258267 0.10250233 -0.096328445 0.045130126 0.13477354 0.076921366 -0.022381319
0.09135302 0.070377104 0.029707368 0.15728441 0.051677898 -0.053003285 0.1278033 -0.024945417
0.100450814 0.083680585 0.019787285 0.13523015 0.026732635 0.03150339 0.10805537 0.032886975
0.069555186 0.034088235 0.03848208 0.1638989 0.04613682 0.030512964 0.059093665 -0.005994706
-0.009366928 -0.03538902 -0.055951506 -0.031539157 -0.01112513 -0.048047356 -0.005828939 -0.03560047
0.16398649 -0.011558963 -0.11857525 0.01995127 0.16094464 -0.03084596 0.030448347 -0.047541592
-0.015099829 0.12640513 0.00154109 -0.08379331 -0.021138782 0.18465868 0.038492773 -0.059646208
0.00317438 -0.019209974 -0.06277452 0.053156704 -0.044112142 0.008730146 0.2214668 0.08539031
-0.16487807 -0.052017972 0.0066574723 0.12887573 0.08628254 0.0020523223 0.023241626 -0.05678278
0.09661918 -0.05894067 0.053261053 -0.017945398 -0.04100961 0.030390844 0.02417913 0.2212265
-0.20145048 0.16796497 -0.024490327 0.10705713 -0.017314749 0.08698652 0.003831044 -0.06901335
0.040698353 0.0370653 0.024212262 -0.018565852 0.008149158 0.025572171 0.060288966 -0.16573617
-0.017342217 0.037601862 -0.03437761 0.08202184 -0.0258457 -0.07214519 0.06397777 -0.15837099

fc2.weight f4 [84, 120]
00000000: 4532 813d 9533 073d 7d0c 933d 5dde 613c
00000010: a4f2 343d 185f 7abd 5b02 6cbc 74ef 223d
00000020: a2c8 2e3d 4053 acbc 65b9 d23c 07dc c0bc
00000030: 46ab 97bc f480 19bd c14f 7d3d e575 a5bc
00000040: 964c b8bd 5707 0bbd 3884 823d a9ae 02bd
00000050: af6a 5b3d 01d4 4abc a9b3 8ebd 9712 dbba
00000060: 8ece 9abd 0208 b6bd ca7c 273d 5a12 453d
00000070: 49bf 3abd 5204 4fbc 48c8 43bd 5f45 a7bc
00000080: 65ce 193d 3367 8a3d d9dc d7bd ef1a 133d
00000090: f546 b53c caf7 e4bb 8b1c 97bd 4b15 6b3d
000000a0: fbc2 5b3b a65e 643d d7a0 6fbd 7536 c03a
000000b0: d654 25bd 7ab5 393d 8799 d8bc ee11 99bd
000000c0: 3347 de3d cdc5 c33c e257 e63b 5d9b 86bd
000000d0: 2497 babd 03f4 2fbd 7136 aa3d c81d 14bd
000000e0: a958 86b8 5b8e 713d 4952 c5bd 951e 263d
000000f0: 91f2 44bd 9c36 003d 34d7 a2bd 5831 92bd
00000100: c428 a0bd 7ada 4a3d 75c1 a7bd 8b21 ca3c
00000110: 4802 273d 5fe9 3b3d d7ad 57bd f978 71bd
00000120: aae2 b5bd 7b63 283d bcb5 9abd aebd 6c3d
00000130: 7059 b63c 92ff 323d d852 403d 1b5d 81bd
00000140: 70d2 ebbd cf61 223d c640 223d 3a9c 6ebc
00000150: 5499 92bc a939 253d 9340 333d 38c0 6c3d
00000160: 4b5d 1b3d d3bc 743c 1d29 103d 9b25 2a3b
00000170: 61d0 dabc 5b2f 003d 1a98 903d 9dce 50bd
00000180: 1a93 1b3d 0865 f6bc 8dfa 99bd 9363 86bd
00000190: 82e7 0d3c 828c 2c3d 9971 423d e278 7ebd
000001a0: a307 963d fc53 8abb f714 94bd c0fa aabc
000001b0: f129 a4bb 1bef f43c 7dea 61bd 0bd6 503c
000001c0: 7967 9e3d 7125 9ebd b26d ec3c a36e 0abd
000001d0: 670f 073d d9be 7fbd efa1 973d 6583 2e3d
000001e0: 06de d63b 2872 80bd 0e3e cabd d635 b83c
000001f0: acbb 91bd 469f 943b e9ed b33d a013 7abd
00000200: d889 203d 1268 73bd 2e87 a23c 7667 dcbb
00000210: ac12 143d ed52 3f3d 27d1 8f3d 362a b7bd
00000220: 85c9 423d 0a66 453c 0e27 25bd 7dce babd
00000230: a6f4 1abd 94d7 163d ba84 673d 5a66 f0ba
00000240: 9041 bb3d 7049 fabc 35d9 4fbd b40a be3d
00000250: 65d9 dfbc 1778 00be 4175 4fbd fedb ab3c
00000260: ee89 e83c b59d 8abd 8945 c53b 18f2 d03d
00000270: ff01 a43d 8a1b 45bd c2ef 29bd 6fcf b4bc
00000280: dca4 ecbc be6b 483d b60e 8c3d 8b46 eb3d
00000290: 3d94 003e 0772 8d3d 303e 86bd 8b7b 9d3d
000002a0: 366c 84bd 7724 943c 6e2f 1dbc 1234 c3bc
000002b0: 0aad cf3c 3351 723d a628 693d 9d1b 583c
000002c0: 7d18 a53b b663 9cbc 0041 8bbd 37f1 bc3d
000002d0: 7a65 e6bb 573b 043c b413 56bd 5b95 1c3d
000002e0: 7608 213d c1ee e83d b4a4 e1bd 1ffe b2bd
000002f0: 5c73 71bc 6ac2 9a3d c1d4 35bd b3c5 3dbd
00000300: e8b9 c0bc fa44 173d ba8e 2bbd a316 c83c
00000310: d069 bebd 38a6 ff3b 9293 633d 2f1a fbbd
00000320: 52af d5bd 57ad 87bd 5b54 bcbc 1826 5b3d
00000330: 6b73 04bd e3be 9f3d 4b9b 7c3d c8c3 cfbd
00000340: c9ee d1ba 09bc 92bd 168e 3abd 09a4 7a3d
00000350: e2f3 2abd 6db7 70bd 53a5 613d e68d dabc
00000360: 0f13 0cbd bbfa 9e3d caf8 a5bc e24a 9d3d
00000370: 9657 d6bd 90c2 db3d 85ad 803d 52b2 3abd
00000380: 1dd5 8d3d 05d6 94bc 9e2f 93bc ff93 8f3d
00000390: 4c6a 96ba 6e7a 21bd 8655 933d d72a bcbd
000003a0: 8964 a1bd 500c c43d 8d5d b43d 7fd6 833c
000003b0: 589d 4b3d cb38 a9bd 2e31 90bd 1a8c 5fbd
000003c0: ef56 1dbd f8ad d63d 8a1d 913a 7575 27bd
000003d0: 398e c53c 17ec 933c 2a83 7a3d edfa f7bc
000003e0: ff39 98bd 875e 20bd b31c b73c dfda cebd
000003f0: 7c87 093d 7ebf 9bbd bdfd 903d 24db a13c
0.06308416 0.033008177 0.07180116 0.013785926 0.044176713 -0.061125845 -0.014404858 0.03977914
0.042671807 -0.02103579 0.025723169 -0.023542417 -0.018514287 -0.037476495 0.061843637 -0.020197818
-0.089989826 -0.033942547 0.06372875 -0.03190485 0.05356854 -0.012379647 -0.06967861 -0.0016713914
-0.075589284 -0.08888246 0.040890492 0.048113205 -0.04559258 -0.012635307 -0.047798425 -0.02041882
0.03755035 0.06757965 -0.1054017 0.035914358 0.022128562 -0.0069875466 -0.07378491 0.057393353
0.0033532965 0.055754326 -0.058503 0.0014664667 -0.04036411 0.045339085 -0.026440395 -0.07474123
0.10853424 0.02389803 0.0070295194 -0.06572602 -0.09110859 -0.042957317 0.08311165 -0.036161214
-6.406132e-05 0.05897365 -0.09634835 0.04055651 -0.04808289 0.03130208 -0.07951203 -0.07138318
-0.078202754 0.04952476 -0.08191196 0.024674198 0.04077366 0.045876857 -0.05265602 -0.05895326
-0.08881123 0.041110497 -0.07554194 0.05779808 0.022259444 0.043700762 0.046954006 -0.063165866
-0.11514747 0.03964406 0.039612554 -0.0145636145 -0.017895378 0.040338192 0.043762755 0.0578005
0.037930768 0.014937597 0.03519546 0.0025962356 -0.02671069 0.03129516 0.07060261 -0.05097829
0.037982084 -0.030077472 -0.07518492 -0.06561961 0.008661153 0.042126186 0.047471616 -0.062127
0.07325675 -0.0042214375 -0.07230561 -0.02087152 -0.0050098826 0.02989917 -0.055155266 0.012746344
0.077345796 -0.07721985 0.0288609 -0.033796918 0.032973673 -0.062437866 0.07403933 0.042605776
0.006557229 -0.062717736 -0.09875117 0.022486608 -0.07115874 0.0045355884 0.08785612 -0.061053872
0.039193958 -0.05942542 0.01983985 -0.0067262007 0.03615062 0.046709944 0.070223145 -0.08943598
0.047555465 0.012048254 -0.04032045 -0.09121416 -0.03783097 0.036826685 0.056523062 -0.001834105
0.091433644 -0.030552596 -0.050744254 0.09279385 -0.027325341 -0.1254581 -0.05064893 0.020978924
0.028386083 -0.067683615 0.006020252 0.10202426 0.08008193 -0.048121966 -0.041488416 -0.022071568
-0.028887205 0.048930876 0.068387434 0.114880644 0.12556548 0.069065146 -0.0655483 0.076895796
-0.06465952 0.018083794 -0.009593828 -0.02382854 0.025351066 0.05915947 0.05692353 0.013190177
0.0050383196 -0.019090515 -0.06799507 0.092256956 -0.00703114 0.008070788 -0.052264884 0.038228374
0.03931471 0.11373664 -0.11017743 -0.08739876 -0.0147369765 0.07556613 -0.04439235 -0.04633112
-0.023526147 0.036931016 -0.04188416 0.024424857 -0.09297526 0.0078017972 0.055560656 -0.122608535
-0.1043383 -0.06624859 -0.022989443 0.053503126 -0.032336634 0.078000806 0.061671536 -0.10144764
-0.0016016598 -0.07164771 -0.04554566 0.061191592 -0.04173649 -0.05876868 0.055089306 -0.02667899
-0.034197863 0.07762667 -0.020260233 0.076802984 -0.104659244 0.10730469 0.06283096 -0.045580216
0.06925414 -0.018168459 -0.017967042 0.0701065 -0.0011475771 -0.0394234 0.07194047 -0.091878586
-0.07880504 0.09572661 0.08806906 0.01609349 0.0497106 -0.082627855 -0.0704063 -0.05457697
-0.038412984 0.10482401 0.0011071425 -0.0408835 0.024115669 0.018056912 0.061160244 -0.030271018
-0.07432937 -0.03915265 0.022352552 -0.1010034 0.033576474 -0.076048836 0.07079647 0.019757815

fc2.bias f4 [84]
00000000: 2e78 bd3c 030f 693e 66b4 873e 744c 84bc
00000010: f3dc 66bd c608 6f3d bd8f a83e 9ee5 56bd
00000020: 7e80 c23d bab7 ca3e 2c5c 1dbc fa92 61bd
00000030: fea5 8f3e 1901 90bd db20 293e 5f00 333c
00000040: e3e9 f03d fdaf a1bd 9f60 02bc d7a7 a1bd
00000050: c852 b23d 4f44 1ebd e0c9 11bd b765 313e
00000060: beb4 91bd b9df e43c 5e5b 60bd a191 2a3e
00000070: 3f0f 07bd f4fd ac3d 3f09 8d3e 8123 81bd
00000080: 9cb1 813d 2290 5dbd 58d7 14bd 6600 073e
00000090: 40c4 133e 1bea ad3b 49bb 8fbd 1851 553c
000000a0: 630e 9e3a 2aac ebbc 0c0e 85bc f49b 4ebd
000000b0: cf0d a8bd 27c0 ac3c 0bb1 14bd ad7f a73d
000000c0: 29d8 293e 041d 273e a6e4 3bbe a9d7 6cbd
000000d0: 6c32 083e f1ef 5b3e a615 75bd c797 83bd
000000e0: 983f a1bd 2675 e63d e482 d83b 9d8c 2fbd
000000f0: d6c2 e13d 7baf 063e fef5 e5bd fcc6 9d3d
00000100: 9f39 003c 7ba4 1d3e 9655 f1bc 2d92 b53d
00000110: a82c 8a3d 1876 33be 7f8d 013f 5375 0d3e
00000120: 03de ad3d 39c3 2bbe 2048 9abc e123 0d3e
00000130: 4600 833c 895f e7bd 9727 b43d e05f 7bbd
00000140: ba46 ab3d 4760 723c eaab b93d 7a15 6d3e
0.023128595 0.22759633 0.2650482 -0.016149737 -0.056363057 0.058357976 0.32922164 -0.052465074
0.09497164 0.39593297 -0.009604495 -0.05507181 0.2805633 -0.07031459 0.1651644 0.010925381
0.1176336 -0.07894895 -0.007957607 -0.07893341 0.087071955 -0.038639363 -0.035592914 0.17323957
-0.07114552 0.02793871 -0.054774635 0.16657116 -0.032973524 0.08446875 0.27546117 -0.063056
0.063327044 -0.054092534 -0.03633818 0.13183746 0.14430332 0.0053074486 -0.07018144 0.013019823
0.0012058731 -0.028768618 -0.01624205 -0.050441697 -0.08205759 0.02108772 -0.036301654 0.08178649
0.16586365 0.16319662 -0.18348941 -0.057822857 0.13300484 0.21478249 -0.0598351 -0.064254336
-0.07873458 0.11252813 0.0066074003 -0.04285871 0.1102349 0.13152878 -0.1122856 0.07703969
0.007826238 0.15394776 -0.029459756 0.088657714 0.06746799 -0.17525518 0.5060653 0.13814287
0.08489611 -0.1677369 -0.01883322 0.13783218 0.015991341 -0.11297519 0.08796614 -0.06137073
0.083630994 0.014793462 0.09065993 0.23152724

fc3.weight f4 [10, 84]
00000000: 9ebd 843b e1f2 663d 449e 5a3e 7285 bcbd
00000010: 5a8f 9abc f994 b4bd eaf6 06be 21b5 83bd
00000020: fbc4 4fbe 701b 4bbe e04e 463c d713 7dbb
00000030: aa18 8ebe 2d4f 8e3e e12e 0c3e 6fbd 1d3e
00000040: 45a4 8fbd 91be a73d 9654 6c3e 7471 0e3e
00000050: 5ecd 933d 7646 9c3d 09ea 063d 2341 123e
00000060: 8d4b 8ebd f7e0 54bd 8bb1 ffbd 514f eebd
00000070: a55e 883d a2a2 b13c 14cc 913e f7bf d83d
00000080: b2a1 a13e dca5 43bc a11c 3cbd e908 153e
00000090: 211e 10bd 1dff 85bd cbf5 e33c b20f fdbc
000000a0: d44e 06be 38f2 d5bd 0065 b83c 72bf 483e
000000b0: 378e 873d 27f4 513b 2638 0fbe 06e3 583c
000000c0: 44eb 173e 4e45 bdbc 3634 9c3b ccf2 7a3a
000000d0: 39b2 dc3d ffdf fbbd 7c38 063e 11d6 7e3c
000000e0: 99a4 cbbd dbdb 4fbd a2b7 b33d 3588 743b
000000f0: 2468 3b3e 8214 d8bd 7caf 86bd 8fd4 633d
00000100: d182 c33b 1a53 973c 3819 3bbd 3158 04be
00000110: ae35 d8bd 6ab1 b73c 4059 51be 15b5 94bc
00000120: c8d9 543e ce72 d83d 0c57 c6bd 1d87 b43d
00000130: ab30 5dbd 7df0 313e b931 0fbe d1d1 f6bc
00000140: 5c72 5dbe b0e2 1f3e 5bef 063d 0cdc ad3c
00000150: ee28 81bd 5f6f ccbd 9c00 db3c e101 6cbd
00000160: d55d a03d 3f7c 84be 6032 a3be da42 d1bd
00000170: 6e33 68be 8708 39be 3895 a9bd 3710 293e
00000180: c584 48be 1d12 323e 5f01 813e ee30 cebd
00000190: e8bb bdbd bd7e b1bc 1a9c 37be 0dd4 be3c
000001a0: 0ed2 3cbe 50e2 473d e14a b33d 5270 21be
000001b0: 7cb7 963d 49b1 653c 5c4f bc3c a2ed 00be
000001c0: ded6 393a dfde df3d 8fbc 83be 44b1 18be
000001d0: 51c7 6e3e e775 ce3d 4b09 093e 17d7 773d
000001e0: 0002 d0bc cdce 623d 2be0 cdbd f50f c73d
000001f0: 03ab 25bd 1757 e6bd c333 443e 47d6 b73e
00000200: 0fc4 a3bd 460b b13d 321f 2c3e 5ddb 733c
00000210: 51a5 343c 77b1 92be b9b3 1f3e 290f a83c
00000220: 551e a6bd c870 8bbe deaf a4bd 65c1 8e3d
00000230: a66b b83e 86c2 093d 3003 24be b119 ab3d
00000240: 8071 33bd caef ab3d 38e3 fa3d 6e77 69bd
00000250: c0aa 9e3e 2f1f 8fbe 23e9 c6bd 2cc2 0d3e
00000260: 1303 653d 9cbc 83bc 461d 44be d701 75bd
00000270: 4583 af3d fe21 633e 4a5c b1bc df34 73bd
00000280: 5eb4 903d 8123 09bc dc30 8cbd b349 98bd
00000290: 17f6 493e 5532 403e b7ba b1bd 9fc2 ed3d
000002a0: 57ed acbd 7c7e e4bd 72d4 3f3d 59de d33c
000002b0: 2b99 a3bd 1a9f 3f3e 9b17 9a3e 5ee9 7cbd
000002c0: 3303 50bd f252 9f3e ee37 d63c 5213 063e
000002d0: f538 12bd ec5d 2c3d 6a0f 9bbd d9b3 733e
000002e0: 4678 c83d 2d54 ab3d af38 423e 7936 3c3e
000002f0: fff3 b1bd aa1f 0abe 994e 0fbe 5bef abbb
00000300: f216 a5bd a3bf 953d bbea a83d 6d80 ed3d
00000310: 1e8a a63a 9faa 103d 8963 0a3e c18e ac3c
00000320: ff74 1fbd 3ce0 46bc 9528 943d 5b0c 4d3c
00000330: b320 583e 4d88 0bbe 8681 8e3d 84d0 bd3b
00000340: eb13 2abb 5fe3 1e3d e439 04be c580 51be
00000350: 1099 bd3d 675b 09bd 6446 803d 8e7a c33d
00000360: bdc5 0ebe e83a 8e3e 1bf6 adba c802 0e3d
00000370: cba2 bd3d 8544 8c3c eb3d 153d d950 563c
00000380: 3234 f0bd 42d1 ecbd 5092 2b3e dfa8 9a3d
00000390: 2777 483d 47cd 263d 141a a43d 4d21 c0bd
000003a0: e150 1bbe a078 2b3d 4851 2f3e 29f8 0cbd
000003b0: 7a52 843d f540 57be 364f 7ebd c3f1 eabd
000003c0: cf6b 493e 3dad cebc e4db b13d 580b fb3c
000003d0: 7819 683d ca52 bc3d 58e4 2b3e 95ca a2b8
000003e0: cd5e c13d dc25 b1bd 42e3 113e fa7f 00be
000003f0: db4a c0bd 3eba 843d d626 c4bd b59d cd3d
0.0040509244 0.05638397 0.21349436 -0.0920514 -0.018867183 -0.08817477 -0.13180128 -0.06431032
-0.20289986 -0.19834685 0.012103766 -0.0038616562 -0.27753192 0.2779478 0.13689758 0.15404294
-0.07013754 0.081906445 0.23079142 0.13910466 0.07216905 0.07630627 0.032938037 0.1428266
-0.06948004 -0.051972356 -0.124850355 -0.11636222 0.06658677 0.021683995 0.28476012 0.105834894
0.31568676 -0.011941399 -0.04592574 0.1455418 -0.035184983 -0.065427996 0.027827164 -0.030891273
-0.13116008 -0.1044659 0.022509098 0.1960428 0.06618922 0.0032036395 -0.13986263 0.01323772
0.1483584 -0.023104336 0.004766966 0.0009572923 0.10776181 -0.12298583 0.13107485 0.015553967
-0.09943504 -0.05074678 0.087752596 0.003731263 0.18301445 -0.105507866 -0.0657644 0.055622634
0.0059665223 0.018472243 -0.045678347 -0.12924267 -0.105571136 0.022423465 -0.20444202 -0.018152753
0.20786202 0.10568772 -0.096845716 0.08814833 -0.05400149 0.17376895 -0.13983811 -0.030129345
-0.21625656 0.15613818 0.03294311 0.02122309 -0.06306635 -0.0998218 0.026733689 -0.05761898
0.07830397 -0.25876042 -0.3187437 -0.10217829 -0.22675869 -0.18069659 -0.08280414 0.16510092
-0.19581898 0.17389722 0.2519636 -0.10067926 -0.09264356 -0.021666879 -0.17930642 0.023294473
-0.18439505 0.048799813 0.087545164 -0.15765503 0.073592156 0.014019319 0.02298706 -0.1259065
0.00070892076 0.10931181 -0.25729796 -0.14911371 0.2331822 0.10081082 0.13382451 0.06050786
-0.025391579 0.055373 -0.10052522 0.097198404 -0.040446293 -0.1124708 0.1916037 0.35905668
-0.079963796 0.08644728 0.16808775 0.014883843 0.011025743 -0.2865102 0.15595903 0.020515041
-0.08111254 -0.27234483 -0.080413565 0.06970481 0.3601963 0.033632778 -0.16016841 0.083545096
-0.043809414 0.083953455 0.1225037 -0.056998663 0.30989647 -0.2795348 -0.09712436 0.13843602
0.055911135 -0.016081147 -0.19151792 -0.059816208 0.085699596 0.22180936 -0.021650452 -0.059376594
0.07065652 -0.008370281 -0.06845257 -0.07435932 0.19722782 0.187692 -0.08678191 0.11609387
-0.084437065 -0.111569375 0.046833463 0.02586286 -0.07988199 0.18713036 0.30096135 -0.061745994
-0.0507843 0.3111797 0.026149716 0.13093308 -0.03569885 0.04208176 -0.075712994 0.23799075
0.09788565 0.08365665 0.18966936 0.18380155 -0.08689117 -0.13488641 -0.13994826 -0.0052470393
-0.08061017 0.073119424 0.08247896 0.11596761 0.0012705957 0.035318967 0.13514532 0.021064164
-0.038929936 -0.012138423 0.07234303 0.012515153 0.21106224 -0.13626213 0.069582984 0.0057926793
-0.0025951813 0.038791057 -0.12912709 -0.20459278 0.0925771 -0.033534434 0.06263426 0.0954486
-0.13942619 0.27779317 -0.0013272198 0.03467062 0.09259566 0.017122516 0.036436003 0.013080799
-0.117287055 -0.1156335 0.16755033 0.07551741 0.048941758 0.04072311 0.080127865 -0.093813516
-0.15167572 0.041863084 0.1712085 -0.03441635 0.06461044 -0.21020873 -0.06208726 -0.11471894
0.19670032 -0.02522909 0.08684519 0.030645058 0.056664914 0.09195478 0.16786325 -7.762496e-05
0.0944191 -0.08649799 0.14246848 -0.12548819 -0.093892775 0.064808354 -0.0957772 0.10039846

fc3.bias f4 [10]
00000000: 1b62 7abe cfbb 0ebf 84c9 243e af06 8f3e
00000010: c8ca 1b3f e511 85bd a6cb 1e3e 9494 7ebe
00000020: 70fc 723e 0514 91be
-0.24451487 -0.55755323 0.16092497 0.27934787 0.60856295 -0.06497554 0.15507373 -0.24861366
0.2372911 -0.28335586
